…
99},"executionInfo":{"status":"ok","timestamp":1580205168746,"user_tz":-60,"elapsed":1854,"user":{"displayName":"MOHAMMEDHABIBALLAH KECHOUT","photoUrl":"","userId":"07713851526066351568"}},"outputId":"7b2edf8a-74a9-43c7-934b-97edb97a64fe"},"source":["vgg_model.summary()"],"execution_count":null,"outputs":[{"output_type":"stream","text":["Model: \"vgg16\"\n","_________________________________________________________________\n","Layer (type)                 Output Shape              Param #   \n","=================================================================\n","input_1 (InputLayer)         (None, 150, 150, 3)       0         \n","_________________________________________________________________\n","block1_conv1 (Conv2D)        (None, 150, 150, 64)      1792      \n","_________________________________________________________________\n","block1_conv2 (Conv2D)        (None, 150, 150, 64)      36928     \n","_________________________________________________________________\n","block1_pool (MaxPooling2D)   (None, 75, 75, 64)        0         \n","_________________________________________________________________\n","block2_conv1 (Conv2D)        (None, 75, 75, 128)       73856     \n","_________________________________________________________________\n","block2_conv2 (Conv2D)        (None, 75, 75, 128)       147584    \n","_________________________________________________________________\n","block2_pool (MaxPooling2D)   (None, 37, 37, 128)       0         \n","_________________________________________________________________\n","block3_conv1 (Conv2D)        (None, 37, 37, 256)       295168    \n","_________________________________________________________________\n","block3_conv2 (Conv2D)        (None, 37, 37, 256)       590080    \n","_________________________________________________________________\n","block3_conv3 (Conv2D)        (None, 37, 37, 256)       590080    \n","_________________________________________________________________\n","block3_pool (MaxPooling2D)   (None, 18, 18, 256)       0         \n","_________________________________________________________________\n","block4_conv1 (Conv2D)        (None, 18, 18, 512)       1180160   \n","_________________________________________________________________\n","block4_conv2 (Conv2D)        (None, 18, 18, 512)       2359808   \n","_________________________________________________________________\n","block4_conv3 (Conv2D)        (None, 18, 18, 512)       2359808   \n","_________________________________________________________________\n","block4_pool (MaxPooling2D)   (None, 9, 9, 512)         0         \n","_________________________________________________________________\n","block5_conv1 (Conv2D)        (None, 9, 9, 512)         2359808   \n","_________________________________________________________________\n","block5_conv2 (Conv2D)        (None, 9, 9, 512)         2359808   \n","_________________________________________________________________\n","block5_conv3 (Conv2D)        (None, 9, 9, 512)         2359808   \n","_________________________________________________________________\n","block5_pool (MaxPooling2D)   (None, 4, 4, 512)         0         \n","=================================================================\n","Total params: 14,714,688\n","Trainable params: 14,714,688\n","Non-trainable params: 0\n","_________________________________________________________________\n"],"name":"stdout"}]},{"cell_type":"code","metadata":{"id":"roQG0X-wwPGp","colab_type":"code","colab":{}},"source":["from keras.preprocessing.image import Imag
…
9},"executionInfo":{"status":"ok","timestamp":1580209282412,"user_tz":-60,"elapsed":755,"user":{"displayName":"MOHAMMEDHABIBALLAH KECHOUT","photoUrl":"","userId":"07713851526066351568"}},"outputId":"ace3c86c-3efe-46b9-849a-a9540683f234"},"source":["new_model.summary()"],"execution_count":null,"outputs":[{"output_type":"stream","text":["Model: \"model_1\"\n","_________________________________________________________________\n","Layer (type)                 Output Shape              Param #   \n","=================================================================\n","input_1 (InputLayer)         (None, 150, 150, 3)       0         \n","_________________________________________________________________\n","block1_conv1 (Conv2D)        (None, 150, 150, 58)      1624      \n","_________________________________________________________________\n","block1_conv2 (Conv2D)        (None, 150, 150, 64)      33472     \n","_________________________________________________________________\n","block1_pool (MaxPooling2D)   (None, 75, 75, 64)        0         \n","_________________________________________________________________\n","block2_conv1 (Conv2D)        (None, 75, 75, 128)       73856     \n","_________________________________________________________________\n","block2_conv2 (Conv2D)        (None, 75, 75, 128)       147584    \n","_________________________________________________________________\n","block2_pool (MaxPooling2D)   (None, 37, 37, 128)       0         \n","_________________________________________________________________\n","block3_conv1 (Conv2D)        (None, 37, 37, 256)       295168    \n","_________________________________________________________________\n","block3_conv2 (Conv2D)        (None, 37, 37, 256)       590080    \n","_________________________________________________________________\n","block3_conv3 (Conv2D)        (None, 37, 37, 256)       590080    \n","_________________________________________________________________\n","block3_pool (MaxPooling2D)   (None, 18, 18, 256)       0         \n","_________________________________________________________________\n","block4_conv1 (Conv2D)        (None, 18, 18, 512)       1180160   \n","_________________________________________________________________\n","block4_conv2 (Conv2D)        (None, 18, 18, 512)       2359808   \n","_________________________________________________________________\n","block4_conv3 (Conv2D)        (None, 18, 18, 512)       2359808   \n","_________________________________________________________________\n","block4_pool (MaxPooling2D)   (None, 9, 9, 512)         0         \n","_________________________________________________________________\n","block5_conv1 (Conv2D)        (None, 9, 9, 512)         2359808   \n","_________________________________________________________________\n","block5_conv2 (Conv2D)        (None, 9, 9, 512)         2359808   \n","_________________________________________________________________\n","block5_conv3 (Conv2D)        (None, 9, 9, 512)         2359808   \n","_________________________________________________________________\n","block5_pool (MaxPooling2D)   (None, 4, 4, 512)         0         \n","=================================================================\n","Total params: 14,711,064\n","Trainable params: 14,711,064\n","Non-trainable params: 0\n","_________________________________________________________________\n"],"name":"stdout"}]},{"cell_type":"code","metadata":{"id":"5Mz_cXa_0Bli","colab_type":"code","colab":{"base_uri":"https://localhost:8080/","height":34},"execu
…
